…
   "execution_count": 61,
   "id": "49d6c318",
   "metadata": {
    "colab": {
     "base_uri": "https://localhost:8080/"
    },
    "id": "49d6c318",
    "outputId": "81ed3cd5-026c-4cf0-ef1b-2a5a5e724b11"
   },
   "outputs": [
    {
     "name": "stdout",
     "output_type": "stream",
     "text": [
      "Model: \"sequential_4\"\n",
      "_________________________________________________________________\n",
      " Layer (type)                Output Shape              Param #   \n",
      "=================================================================\n",
      " conv2d_9 (Conv2D)           (None, 26, 26, 64)        640       \n",
      "                                                                 \n",
      " activation_18 (Activation)  (None, 26, 26, 64)        0         \n",
      "                                                                 \n",
      " max_pooling2d_9 (MaxPooling  (None, 13, 13, 64)       0         \n",
      " 2D)                                                             \n",
      "                                                                 \n",
      " conv2d_10 (Conv2D)          (None, 11, 11, 64)        36928     \n",
      "                                                                 \n",
      " activation_19 (Activation)  (None, 11, 11, 64)        0         \n",
      "                                                                 \n",
      " max_pooling2d_10 (MaxPoolin  (None, 5, 5, 64)         0         \n",
      " g2D)                                                            \n",
      "                                                                 \n",
      " conv2d_11 (Conv2D)          (None, 3, 3, 64)          36928     \n",
      "                                                                 \n",
      " activation_20 (Activation)  (None, 3, 3, 64)          0         \n",
      "                                                                 \n",
      " max_pooling2d_11 (MaxPoolin  (None, 1, 1, 64)         0         \n",
      " g2D)                                                            \n",
      "                                                                 \n",
      " flatten_3 (Flatten)         (None, 64)                0         \n",
      "                                                                 \n",
      " dense_9 (Dense)             (None, 64)                4160      \n",
      "                                                                 \n",
      " activation_21 (Activation)  (None, 64)                0         \n",
      "                                                                 \n",
      " dense_10 (Dense)            (None, 32)                2080      \n",
      "                                                                 \n",
      " activation_22 (Activation)  (None, 32)                0         \n",
      "                                                                 \n",
      " dense_11 (Dense)            (None, 10)                330       \n",
      "                                                                 \n",
      " activation_23 (Activation)  (None, 10)                0         \n",
      "                                                                 \n",
      "=================================================================\n",
      "Total params: 81,066\n",
      "Trainable params: 81,066\n",
      "Non-trainable params: 0\n",
      "_________________________________________________________________\n"
     ]
    }
   ],
   "source": [
    "model.summary()"
…
